Layer (type)                     Output Shape          Param #     Connected to                     
====================================================================================================
input_1 (InputLayer)             (None, 3, 299, 299)   0                                            
____________________________________________________________________________________________________
conv2d_1 (Conv2D)                (None, 32, 149, 149)  864         input_1[0][0]                    
____________________________________________________________________________________________________
batch_normalization_1 (BatchNorm (None, 32, 149, 149)  128         conv2d_1[0][0]                   
____________________________________________________________________________________________________
activation_1 (Activation)        (None, 32, 149, 149)  0           batch_normalization_1[0][0]      
____________________________________________________________________________________________________
conv2d_2 (Conv2D)                (None, 32, 147, 147)  9216        activation_1[0][0]               
____________________________________________________________________________________________________
batch_normalization_2 (BatchNorm (None, 32, 147, 147)  128         conv2d_2[0][0]                   
____________________________________________________________________________________________________
activation_2 (Activation)        (None, 32, 147, 147)  0           batch_normalization_2[0][0]      
____________________________________________________________________________________________________
conv2d_3 (Conv2D)                (None, 64, 147, 147)  18432       activation_2[0][0]               
____________________________________________________________________________________________________
batch_normalization_3 (BatchNorm (None, 64, 147, 147)  256         conv2d_3[0][0]                   
____________________________________________________________________________________________________
activation_3 (Activation)        (None, 64, 147, 147)  0           batch_normalization_3[0][0]      
____________________________________________________________________________________________________
conv2d_4 (Conv2D)                (None, 96, 73, 73)    55296       activation_3[0][0]               
____________________________________________________________________________________________________
batch_normalization_4 (BatchNorm (None, 96, 73, 73)    384         conv2d_4[0][0]                   
____________________________________________________________________________________________________
max_pooling2d_1 (MaxPooling2D)   (None, 64, 73, 73)    0           activation_3[0][0]               
____________________________________________________________________________________________________
activation_4 (Activation)        (None, 96, 73, 73)    0           batch_normalization_4[0][0]      
____________________________________________________________________________________________________
merge_1 (Merge)                  (None, 160, 73, 73)   0           max_pooling2d_1[0][0]            
                                                                   activation_4[0][0]               
____________________________________________________________________________________________________
conv2d_7 (Conv2D)                (None, 64, 73, 73)    10240       merge_1[0][0]                    
____________________________________________________________________________________________________
batch_normalization_7 (BatchNorm (None, 64, 73, 73)    256         conv2d_7[0][0]                   
____________________________________________________________________________________________________
activation_7 (Activation)        (None, 64, 73, 73)    0           batch_normalization_7[0][0]      
____________________________________________________________________________________________________
conv2d_8 (Conv2D)                (None, 64, 73, 73)    28672       activation_7[0][0]               
____________________________________________________________________________________________________
batch_normalization_8 (BatchNorm (None, 64, 73, 73)    256         conv2d_8[0][0]                   
____________________________________________________________________________________________________
activation_8 (Activation)        (None, 64, 73, 73)    0           batch_normalization_8[0][0]      
____________________________________________________________________________________________________
conv2d_5 (Conv2D)                (None, 64, 73, 73)    10240       merge_1[0][0]                    
____________________________________________________________________________________________________
conv2d_9 (Conv2D)                (None, 64, 73, 73)    28672       activation_8[0][0]               
____________________________________________________________________________________________________
batch_normalization_5 (BatchNorm (None, 64, 73, 73)    256         conv2d_5[0][0]                   
____________________________________________________________________________________________________
batch_normalization_9 (BatchNorm (None, 64, 73, 73)    256         conv2d_9[0][0]                   
____________________________________________________________________________________________________
activation_5 (Activation)        (None, 64, 73, 73)    0           batch_normalization_5[0][0]      
____________________________________________________________________________________________________
activation_9 (Activation)        (None, 64, 73, 73)    0           batch_normalization_9[0][0]      
____________________________________________________________________________________________________
conv2d_6 (Conv2D)                (None, 96, 71, 71)    55296       activation_5[0][0]               
____________________________________________________________________________________________________
conv2d_10 (Conv2D)               (None, 96, 71, 71)    55296       activation_9[0][0]               
____________________________________________________________________________________________________
batch_normalization_6 (BatchNorm (None, 96, 71, 71)    384         conv2d_6[0][0]                   
____________________________________________________________________________________________________
batch_normalization_10 (BatchNor (None, 96, 71, 71)    384         conv2d_10[0][0]                  
____________________________________________________________________________________________________
activation_6 (Activation)        (None, 96, 71, 71)    0           batch_normalization_6[0][0]      
____________________________________________________________________________________________________
activation_10 (Activation)       (None, 96, 71, 71)    0           batch_normalization_10[0][0]     
____________________________________________________________________________________________________
merge_2 (Merge)                  (None, 192, 71, 71)   0           activation_6[0][0]               
                                                                   activation_10[0][0]              
____________________________________________________________________________________________________
conv2d_11 (Conv2D)               (None, 192, 35, 35)   331776      merge_2[0][0]                    
____________________________________________________________________________________________________
batch_normalization_11 (BatchNor (None, 192, 35, 35)   768         conv2d_11[0][0]                  
____________________________________________________________________________________________________
activation_11 (Activation)       (None, 192, 35, 35)   0           batch_normalization_11[0][0]     
____________________________________________________________________________________________________
max_pooling2d_2 (MaxPooling2D)   (None, 192, 35, 35)   0           merge_2[0][0]                    
____________________________________________________________________________________________________
merge_3 (Merge)                  (None, 384, 35, 35)   0           activation_11[0][0]              
                                                                   max_pooling2d_2[0][0]            
____________________________________________________________________________________________________
conv2d_15 (Conv2D)               (None, 64, 35, 35)    24576       merge_3[0][0]                    
____________________________________________________________________________________________________
batch_normalization_15 (BatchNor (None, 64, 35, 35)    256         conv2d_15[0][0]                  
____________________________________________________________________________________________________
activation_15 (Activation)       (None, 64, 35, 35)    0           batch_normalization_15[0][0]     
____________________________________________________________________________________________________
conv2d_13 (Conv2D)               (None, 64, 35, 35)    24576       merge_3[0][0]                    
____________________________________________________________________________________________________
conv2d_16 (Conv2D)               (None, 96, 35, 35)    55296       activation_15[0][0]              
____________________________________________________________________________________________________
batch_normalization_13 (BatchNor (None, 64, 35, 35)    256         conv2d_13[0][0]                  
____________________________________________________________________________________________________
batch_normalization_16 (BatchNor (None, 96, 35, 35)    384         conv2d_16[0][0]                  
____________________________________________________________________________________________________
activation_13 (Activation)       (None, 64, 35, 35)    0           batch_normalization_13[0][0]     
____________________________________________________________________________________________________
activation_16 (Activation)       (None, 96, 35, 35)    0           batch_normalization_16[0][0]     
____________________________________________________________________________________________________
average_pooling2d_1 (AveragePool (None, 384, 35, 35)   0           merge_3[0][0]                    
____________________________________________________________________________________________________
conv2d_12 (Conv2D)               (None, 96, 35, 35)    36864       merge_3[0][0]                    
____________________________________________________________________________________________________
conv2d_14 (Conv2D)               (None, 96, 35, 35)    55296       activation_13[0][0]              
____________________________________________________________________________________________________
conv2d_17 (Conv2D)               (None, 96, 35, 35)    82944       activation_16[0][0]              
____________________________________________________________________________________________________
conv2d_18 (Conv2D)               (None, 96, 35, 35)    36864       average_pooling2d_1[0][0]        
____________________________________________________________________________________________________
batch_normalization_12 (BatchNor (None, 96, 35, 35)    384         conv2d_12[0][0]                  
____________________________________________________________________________________________________
batch_normalization_14 (BatchNor (None, 96, 35, 35)    384         conv2d_14[0][0]                  
____________________________________________________________________________________________________
batch_normalization_17 (BatchNor (None, 96, 35, 35)    384         conv2d_17[0][0]                  
____________________________________________________________________________________________________
batch_normalization_18 (BatchNor (None, 96, 35, 35)    384         conv2d_18[0][0]                  
____________________________________________________________________________________________________
activation_12 (Activation)       (None, 96, 35, 35)    0           batch_normalization_12[0][0]     
____________________________________________________________________________________________________
activation_14 (Activation)       (None, 96, 35, 35)    0           batch_normalization_14[0][0]     
____________________________________________________________________________________________________
activation_17 (Activation)       (None, 96, 35, 35)    0           batch_normalization_17[0][0]     
____________________________________________________________________________________________________
activation_18 (Activation)       (None, 96, 35, 35)    0           batch_normalization_18[0][0]     
____________________________________________________________________________________________________
merge_4 (Merge)                  (None, 384, 35, 35)   0           activation_12[0][0]              
                                                                   activation_14[0][0]              
                                                                   activation_17[0][0]              
                                                                   activation_18[0][0]              
____________________________________________________________________________________________________
conv2d_22 (Conv2D)               (None, 64, 35, 35)    24576       merge_4[0][0]                    
____________________________________________________________________________________________________
batch_normalization_22 (BatchNor (None, 64, 35, 35)    256         conv2d_22[0][0]                  
____________________________________________________________________________________________________
activation_22 (Activation)       (None, 64, 35, 35)    0           batch_normalization_22[0][0]     
____________________________________________________________________________________________________
conv2d_20 (Conv2D)               (None, 64, 35, 35)    24576       merge_4[0][0]                    
____________________________________________________________________________________________________
conv2d_23 (Conv2D)               (None, 96, 35, 35)    55296       activation_22[0][0]              
____________________________________________________________________________________________________
batch_normalization_20 (BatchNor (None, 64, 35, 35)    256         conv2d_20[0][0]                  
____________________________________________________________________________________________________
batch_normalization_23 (BatchNor (None, 96, 35, 35)    384         conv2d_23[0][0]                  
____________________________________________________________________________________________________
activation_20 (Activation)       (None, 64, 35, 35)    0           batch_normalization_20[0][0]     
____________________________________________________________________________________________________
activation_23 (Activation)       (None, 96, 35, 35)    0           batch_normalization_23[0][0]     
____________________________________________________________________________________________________
average_pooling2d_2 (AveragePool (None, 384, 35, 35)   0           merge_4[0][0]                    
____________________________________________________________________________________________________
conv2d_19 (Conv2D)               (None, 96, 35, 35)    36864       merge_4[0][0]                    
____________________________________________________________________________________________________
conv2d_21 (Conv2D)               (None, 96, 35, 35)    55296       activation_20[0][0]              
____________________________________________________________________________________________________
conv2d_24 (Conv2D)               (None, 96, 35, 35)    82944       activation_23[0][0]              
____________________________________________________________________________________________________
conv2d_25 (Conv2D)               (None, 96, 35, 35)    36864       average_pooling2d_2[0][0]        
____________________________________________________________________________________________________
batch_normalization_19 (BatchNor (None, 96, 35, 35)    384         conv2d_19[0][0]                  
____________________________________________________________________________________________________
batch_normalization_21 (BatchNor (None, 96, 35, 35)    384         conv2d_21[0][0]                  
____________________________________________________________________________________________________
batch_normalization_24 (BatchNor (None, 96, 35, 35)    384         conv2d_24[0][0]                  
____________________________________________________________________________________________________
batch_normalization_25 (BatchNor (None, 96, 35, 35)    384         conv2d_25[0][0]                  
____________________________________________________________________________________________________
activation_19 (Activation)       (None, 96, 35, 35)    0           batch_normalization_19[0][0]     
____________________________________________________________________________________________________
activation_21 (Activation)       (None, 96, 35, 35)    0           batch_normalization_21[0][0]     
____________________________________________________________________________________________________
activation_24 (Activation)       (None, 96, 35, 35)    0           batch_normalization_24[0][0]     
____________________________________________________________________________________________________
activation_25 (Activation)       (None, 96, 35, 35)    0           batch_normalization_25[0][0]     
____________________________________________________________________________________________________
merge_5 (Merge)                  (None, 384, 35, 35)   0           activation_19[0][0]              
                                                                   activation_21[0][0]              
                                                                   activation_24[0][0]              
                                                                   activation_25[0][0]              
____________________________________________________________________________________________________
conv2d_29 (Conv2D)               (None, 64, 35, 35)    24576       merge_5[0][0]                    
____________________________________________________________________________________________________
batch_normalization_29 (BatchNor (None, 64, 35, 35)    256         conv2d_29[0][0]                  
____________________________________________________________________________________________________
activation_29 (Activation)       (None, 64, 35, 35)    0           batch_normalization_29[0][0]     
____________________________________________________________________________________________________
conv2d_27 (Conv2D)               (None, 64, 35, 35)    24576       merge_5[0][0]                    
____________________________________________________________________________________________________
conv2d_30 (Conv2D)               (None, 96, 35, 35)    55296       activation_29[0][0]              
____________________________________________________________________________________________________
batch_normalization_27 (BatchNor (None, 64, 35, 35)    256         conv2d_27[0][0]                  
____________________________________________________________________________________________________
batch_normalization_30 (BatchNor (None, 96, 35, 35)    384         conv2d_30[0][0]                  
____________________________________________________________________________________________________
activation_27 (Activation)       (None, 64, 35, 35)    0           batch_normalization_27[0][0]     
____________________________________________________________________________________________________
activation_30 (Activation)       (None, 96, 35, 35)    0           batch_normalization_30[0][0]     
____________________________________________________________________________________________________
average_pooling2d_3 (AveragePool (None, 384, 35, 35)   0           merge_5[0][0]                    
____________________________________________________________________________________________________
conv2d_26 (Conv2D)               (None, 96, 35, 35)    36864       merge_5[0][0]                    
____________________________________________________________________________________________________
conv2d_28 (Conv2D)               (None, 96, 35, 35)    55296       activation_27[0][0]              
____________________________________________________________________________________________________
conv2d_31 (Conv2D)               (None, 96, 35, 35)    82944       activation_30[0][0]              
____________________________________________________________________________________________________
conv2d_32 (Conv2D)               (None, 96, 35, 35)    36864       average_pooling2d_3[0][0]        
____________________________________________________________________________________________________
batch_normalization_26 (BatchNor (None, 96, 35, 35)    384         conv2d_26[0][0]                  
____________________________________________________________________________________________________
batch_normalization_28 (BatchNor (None, 96, 35, 35)    384         conv2d_28[0][0]                  
____________________________________________________________________________________________________
batch_normalization_31 (BatchNor (None, 96, 35, 35)    384         conv2d_31[0][0]                  
____________________________________________________________________________________________________
batch_normalization_32 (BatchNor (None, 96, 35, 35)    384         conv2d_32[0][0]                  
____________________________________________________________________________________________________
activation_26 (Activation)       (None, 96, 35, 35)    0           batch_normalization_26[0][0]     
____________________________________________________________________________________________________
activation_28 (Activation)       (None, 96, 35, 35)    0           batch_normalization_28[0][0]     
____________________________________________________________________________________________________
activation_31 (Activation)       (None, 96, 35, 35)    0           batch_normalization_31[0][0]     
____________________________________________________________________________________________________
activation_32 (Activation)       (None, 96, 35, 35)    0           batch_normalization_32[0][0]     
____________________________________________________________________________________________________
merge_6 (Merge)                  (None, 384, 35, 35)   0           activation_26[0][0]              
                                                                   activation_28[0][0]              
                                                                   activation_31[0][0]              
                                                                   activation_32[0][0]              
____________________________________________________________________________________________________
conv2d_36 (Conv2D)               (None, 64, 35, 35)    24576       merge_6[0][0]                    
____________________________________________________________________________________________________
batch_normalization_36 (BatchNor (None, 64, 35, 35)    256         conv2d_36[0][0]                  
____________________________________________________________________________________________________
activation_36 (Activation)       (None, 64, 35, 35)    0           batch_normalization_36[0][0]     
____________________________________________________________________________________________________
conv2d_34 (Conv2D)               (None, 64, 35, 35)    24576       merge_6[0][0]                    
____________________________________________________________________________________________________
conv2d_37 (Conv2D)               (None, 96, 35, 35)    55296       activation_36[0][0]              
____________________________________________________________________________________________________
batch_normalization_34 (BatchNor (None, 64, 35, 35)    256         conv2d_34[0][0]                  
____________________________________________________________________________________________________
batch_normalization_37 (BatchNor (None, 96, 35, 35)    384         conv2d_37[0][0]                  
____________________________________________________________________________________________________
activation_34 (Activation)       (None, 64, 35, 35)    0           batch_normalization_34[0][0]     
____________________________________________________________________________________________________
activation_37 (Activation)       (None, 96, 35, 35)    0           batch_normalization_37[0][0]     
____________________________________________________________________________________________________
average_pooling2d_4 (AveragePool (None, 384, 35, 35)   0           merge_6[0][0]                    
____________________________________________________________________________________________________
conv2d_33 (Conv2D)               (None, 96, 35, 35)    36864       merge_6[0][0]                    
____________________________________________________________________________________________________
conv2d_35 (Conv2D)               (None, 96, 35, 35)    55296       activation_34[0][0]              
____________________________________________________________________________________________________
conv2d_38 (Conv2D)               (None, 96, 35, 35)    82944       activation_37[0][0]              
____________________________________________________________________________________________________
conv2d_39 (Conv2D)               (None, 96, 35, 35)    36864       average_pooling2d_4[0][0]        
____________________________________________________________________________________________________
batch_normalization_33 (BatchNor (None, 96, 35, 35)    384         conv2d_33[0][0]                  
____________________________________________________________________________________________________
batch_normalization_35 (BatchNor (None, 96, 35, 35)    384         conv2d_35[0][0]                  
____________________________________________________________________________________________________
batch_normalization_38 (BatchNor (None, 96, 35, 35)    384         conv2d_38[0][0]                  
____________________________________________________________________________________________________
batch_normalization_39 (BatchNor (None, 96, 35, 35)    384         conv2d_39[0][0]                  
____________________________________________________________________________________________________
activation_33 (Activation)       (None, 96, 35, 35)    0           batch_normalization_33[0][0]     
____________________________________________________________________________________________________
activation_35 (Activation)       (None, 96, 35, 35)    0           batch_normalization_35[0][0]     
____________________________________________________________________________________________________
activation_38 (Activation)       (None, 96, 35, 35)    0           batch_normalization_38[0][0]     
____________________________________________________________________________________________________
activation_39 (Activation)       (None, 96, 35, 35)    0           batch_normalization_39[0][0]     
____________________________________________________________________________________________________
merge_7 (Merge)                  (None, 384, 35, 35)   0           activation_33[0][0]              
                                                                   activation_35[0][0]              
                                                                   activation_38[0][0]              
                                                                   activation_39[0][0]              
____________________________________________________________________________________________________
conv2d_41 (Conv2D)               (None, 192, 35, 35)   73728       merge_7[0][0]                    
____________________________________________________________________________________________________
batch_normalization_41 (BatchNor (None, 192, 35, 35)   768         conv2d_41[0][0]                  
____________________________________________________________________________________________________
activation_41 (Activation)       (None, 192, 35, 35)   0           batch_normalization_41[0][0]     
____________________________________________________________________________________________________
conv2d_42 (Conv2D)               (None, 224, 35, 35)   387072      activation_41[0][0]              
____________________________________________________________________________________________________
batch_normalization_42 (BatchNor (None, 224, 35, 35)   896         conv2d_42[0][0]                  
____________________________________________________________________________________________________
activation_42 (Activation)       (None, 224, 35, 35)   0           batch_normalization_42[0][0]     
____________________________________________________________________________________________________
conv2d_40 (Conv2D)               (None, 384, 17, 17)   1327104     merge_7[0][0]                    
____________________________________________________________________________________________________
conv2d_43 (Conv2D)               (None, 256, 17, 17)   516096      activation_42[0][0]              
____________________________________________________________________________________________________
batch_normalization_40 (BatchNor (None, 384, 17, 17)   1536        conv2d_40[0][0]                  
____________________________________________________________________________________________________
batch_normalization_43 (BatchNor (None, 256, 17, 17)   1024        conv2d_43[0][0]                  
____________________________________________________________________________________________________
activation_40 (Activation)       (None, 384, 17, 17)   0           batch_normalization_40[0][0]     
____________________________________________________________________________________________________
activation_43 (Activation)       (None, 256, 17, 17)   0           batch_normalization_43[0][0]     
____________________________________________________________________________________________________
max_pooling2d_3 (MaxPooling2D)   (None, 384, 17, 17)   0           merge_7[0][0]                    
____________________________________________________________________________________________________
merge_8 (Merge)                  (None, 1024, 17, 17)  0           activation_40[0][0]              
                                                                   activation_43[0][0]              
                                                                   max_pooling2d_3[0][0]            
____________________________________________________________________________________________________
conv2d_48 (Conv2D)               (None, 192, 17, 17)   196608      merge_8[0][0]                    
____________________________________________________________________________________________________
batch_normalization_48 (BatchNor (None, 192, 17, 17)   768         conv2d_48[0][0]                  
____________________________________________________________________________________________________
activation_48 (Activation)       (None, 192, 17, 17)   0           batch_normalization_48[0][0]     
____________________________________________________________________________________________________
conv2d_49 (Conv2D)               (None, 192, 17, 17)   258048      activation_48[0][0]              
____________________________________________________________________________________________________
batch_normalization_49 (BatchNor (None, 192, 17, 17)   768         conv2d_49[0][0]                  
____________________________________________________________________________________________________
activation_49 (Activation)       (None, 192, 17, 17)   0           batch_normalization_49[0][0]     
____________________________________________________________________________________________________
conv2d_45 (Conv2D)               (None, 192, 17, 17)   196608      merge_8[0][0]                    
____________________________________________________________________________________________________
conv2d_50 (Conv2D)               (None, 224, 17, 17)   301056      activation_49[0][0]              
____________________________________________________________________________________________________
batch_normalization_45 (BatchNor (None, 192, 17, 17)   768         conv2d_45[0][0]                  
____________________________________________________________________________________________________
batch_normalization_50 (BatchNor (None, 224, 17, 17)   896         conv2d_50[0][0]                  
____________________________________________________________________________________________________
activation_45 (Activation)       (None, 192, 17, 17)   0           batch_normalization_45[0][0]     
____________________________________________________________________________________________________
activation_50 (Activation)       (None, 224, 17, 17)   0           batch_normalization_50[0][0]     
____________________________________________________________________________________________________
conv2d_46 (Conv2D)               (None, 224, 17, 17)   301056      activation_45[0][0]              
____________________________________________________________________________________________________
conv2d_51 (Conv2D)               (None, 224, 17, 17)   351232      activation_50[0][0]              
____________________________________________________________________________________________________
batch_normalization_46 (BatchNor (None, 224, 17, 17)   896         conv2d_46[0][0]                  
____________________________________________________________________________________________________
batch_normalization_51 (BatchNor (None, 224, 17, 17)   896         conv2d_51[0][0]                  
____________________________________________________________________________________________________
activation_46 (Activation)       (None, 224, 17, 17)   0           batch_normalization_46[0][0]     
____________________________________________________________________________________________________
activation_51 (Activation)       (None, 224, 17, 17)   0           batch_normalization_51[0][0]     
____________________________________________________________________________________________________
average_pooling2d_5 (AveragePool (None, 1024, 17, 17)  0           merge_8[0][0]                    
____________________________________________________________________________________________________
conv2d_44 (Conv2D)               (None, 384, 17, 17)   393216      merge_8[0][0]                    
____________________________________________________________________________________________________
conv2d_47 (Conv2D)               (None, 256, 17, 17)   401408      activation_46[0][0]              
____________________________________________________________________________________________________
conv2d_52 (Conv2D)               (None, 256, 17, 17)   401408      activation_51[0][0]              
____________________________________________________________________________________________________
conv2d_53 (Conv2D)               (None, 128, 17, 17)   131072      average_pooling2d_5[0][0]        
____________________________________________________________________________________________________
batch_normalization_44 (BatchNor (None, 384, 17, 17)   1536        conv2d_44[0][0]                  
____________________________________________________________________________________________________
batch_normalization_47 (BatchNor (None, 256, 17, 17)   1024        conv2d_47[0][0]                  
____________________________________________________________________________________________________
batch_normalization_52 (BatchNor (None, 256, 17, 17)   1024        conv2d_52[0][0]                  
____________________________________________________________________________________________________
batch_normalization_53 (BatchNor (None, 128, 17, 17)   512         conv2d_53[0][0]                  
____________________________________________________________________________________________________
activation_44 (Activation)       (None, 384, 17, 17)   0           batch_normalization_44[0][0]     
____________________________________________________________________________________________________
activation_47 (Activation)       (None, 256, 17, 17)   0           batch_normalization_47[0][0]     
____________________________________________________________________________________________________
activation_52 (Activation)       (None, 256, 17, 17)   0           batch_normalization_52[0][0]     
____________________________________________________________________________________________________
activation_53 (Activation)       (None, 128, 17, 17)   0           batch_normalization_53[0][0]     
____________________________________________________________________________________________________
merge_9 (Merge)                  (None, 1024, 17, 17)  0           activation_44[0][0]              
                                                                   activation_47[0][0]              
                                                                   activation_52[0][0]              
                                                                   activation_53[0][0]              
____________________________________________________________________________________________________
conv2d_58 (Conv2D)               (None, 192, 17, 17)   196608      merge_9[0][0]                    
____________________________________________________________________________________________________
batch_normalization_58 (BatchNor (None, 192, 17, 17)   768         conv2d_58[0][0]                  
____________________________________________________________________________________________________
activation_58 (Activation)       (None, 192, 17, 17)   0           batch_normalization_58[0][0]     
____________________________________________________________________________________________________
conv2d_59 (Conv2D)               (None, 192, 17, 17)   258048      activation_58[0][0]              
____________________________________________________________________________________________________
batch_normalization_59 (BatchNor (None, 192, 17, 17)   768         conv2d_59[0][0]                  
____________________________________________________________________________________________________
activation_59 (Activation)       (None, 192, 17, 17)   0           batch_normalization_59[0][0]     
____________________________________________________________________________________________________
conv2d_55 (Conv2D)               (None, 192, 17, 17)   196608      merge_9[0][0]                    
____________________________________________________________________________________________________
conv2d_60 (Conv2D)               (None, 224, 17, 17)   301056      activation_59[0][0]              
____________________________________________________________________________________________________
batch_normalization_55 (BatchNor (None, 192, 17, 17)   768         conv2d_55[0][0]                  
____________________________________________________________________________________________________
batch_normalization_60 (BatchNor (None, 224, 17, 17)   896         conv2d_60[0][0]                  
____________________________________________________________________________________________________
activation_55 (Activation)       (None, 192, 17, 17)   0           batch_normalization_55[0][0]     
____________________________________________________________________________________________________
activation_60 (Activation)       (None, 224, 17, 17)   0           batch_normalization_60[0][0]     
____________________________________________________________________________________________________
conv2d_56 (Conv2D)               (None, 224, 17, 17)   301056      activation_55[0][0]              
____________________________________________________________________________________________________
conv2d_61 (Conv2D)               (None, 224, 17, 17)   351232      activation_60[0][0]              
____________________________________________________________________________________________________
batch_normalization_56 (BatchNor (None, 224, 17, 17)   896         conv2d_56[0][0]                  
____________________________________________________________________________________________________
batch_normalization_61 (BatchNor (None, 224, 17, 17)   896         conv2d_61[0][0]                  
____________________________________________________________________________________________________
activation_56 (Activation)       (None, 224, 17, 17)   0           batch_normalization_56[0][0]     
____________________________________________________________________________________________________
activation_61 (Activation)       (None, 224, 17, 17)   0           batch_normalization_61[0][0]     
____________________________________________________________________________________________________
average_pooling2d_6 (AveragePool (None, 1024, 17, 17)  0           merge_9[0][0]                    
____________________________________________________________________________________________________
conv2d_54 (Conv2D)               (None, 384, 17, 17)   393216      merge_9[0][0]                    
____________________________________________________________________________________________________
conv2d_57 (Conv2D)               (None, 256, 17, 17)   401408      activation_56[0][0]              
____________________________________________________________________________________________________
conv2d_62 (Conv2D)               (None, 256, 17, 17)   401408      activation_61[0][0]              
____________________________________________________________________________________________________
conv2d_63 (Conv2D)               (None, 128, 17, 17)   131072      average_pooling2d_6[0][0]        
____________________________________________________________________________________________________
batch_normalization_54 (BatchNor (None, 384, 17, 17)   1536        conv2d_54[0][0]                  
____________________________________________________________________________________________________
batch_normalization_57 (BatchNor (None, 256, 17, 17)   1024        conv2d_57[0][0]                  
____________________________________________________________________________________________________
batch_normalization_62 (BatchNor (None, 256, 17, 17)   1024        conv2d_62[0][0]                  
____________________________________________________________________________________________________
batch_normalization_63 (BatchNor (None, 128, 17, 17)   512         conv2d_63[0][0]                  
____________________________________________________________________________________________________
activation_54 (Activation)       (None, 384, 17, 17)   0           batch_normalization_54[0][0]     
____________________________________________________________________________________________________
activation_57 (Activation)       (None, 256, 17, 17)   0           batch_normalization_57[0][0]     
____________________________________________________________________________________________________
activation_62 (Activation)       (None, 256, 17, 17)   0           batch_normalization_62[0][0]     
____________________________________________________________________________________________________
activation_63 (Activation)       (None, 128, 17, 17)   0           batch_normalization_63[0][0]     
____________________________________________________________________________________________________
merge_10 (Merge)                 (None, 1024, 17, 17)  0           activation_54[0][0]              
                                                                   activation_57[0][0]              
                                                                   activation_62[0][0]              
                                                                   activation_63[0][0]              
____________________________________________________________________________________________________
conv2d_68 (Conv2D)               (None, 192, 17, 17)   196608      merge_10[0][0]                   
____________________________________________________________________________________________________
batch_normalization_68 (BatchNor (None, 192, 17, 17)   768         conv2d_68[0][0]                  
____________________________________________________________________________________________________
activation_68 (Activation)       (None, 192, 17, 17)   0           batch_normalization_68[0][0]     
____________________________________________________________________________________________________
conv2d_69 (Conv2D)               (None, 192, 17, 17)   258048      activation_68[0][0]              
____________________________________________________________________________________________________
batch_normalization_69 (BatchNor (None, 192, 17, 17)   768         conv2d_69[0][0]                  
____________________________________________________________________________________________________
activation_69 (Activation)       (None, 192, 17, 17)   0           batch_normalization_69[0][0]     
____________________________________________________________________________________________________
conv2d_65 (Conv2D)               (None, 192, 17, 17)   196608      merge_10[0][0]                   
____________________________________________________________________________________________________
conv2d_70 (Conv2D)               (None, 224, 17, 17)   301056      activation_69[0][0]              
____________________________________________________________________________________________________
batch_normalization_65 (BatchNor (None, 192, 17, 17)   768         conv2d_65[0][0]                  
____________________________________________________________________________________________________
batch_normalization_70 (BatchNor (None, 224, 17, 17)   896         conv2d_70[0][0]                  
____________________________________________________________________________________________________
activation_65 (Activation)       (None, 192, 17, 17)   0           batch_normalization_65[0][0]     
____________________________________________________________________________________________________
activation_70 (Activation)       (None, 224, 17, 17)   0           batch_normalization_70[0][0]     
____________________________________________________________________________________________________
conv2d_66 (Conv2D)               (None, 224, 17, 17)   301056      activation_65[0][0]              
____________________________________________________________________________________________________
conv2d_71 (Conv2D)               (None, 224, 17, 17)   351232      activation_70[0][0]              
____________________________________________________________________________________________________
batch_normalization_66 (BatchNor (None, 224, 17, 17)   896         conv2d_66[0][0]                  
____________________________________________________________________________________________________
batch_normalization_71 (BatchNor (None, 224, 17, 17)   896         conv2d_71[0][0]                  
____________________________________________________________________________________________________
activation_66 (Activation)       (None, 224, 17, 17)   0           batch_normalization_66[0][0]     
____________________________________________________________________________________________________
activation_71 (Activation)       (None, 224, 17, 17)   0           batch_normalization_71[0][0]     
____________________________________________________________________________________________________
average_pooling2d_7 (AveragePool (None, 1024, 17, 17)  0           merge_10[0][0]                   
____________________________________________________________________________________________________
conv2d_64 (Conv2D)               (None, 384, 17, 17)   393216      merge_10[0][0]                   
____________________________________________________________________________________________________
conv2d_67 (Conv2D)               (None, 256, 17, 17)   401408      activation_66[0][0]              
____________________________________________________________________________________________________
conv2d_72 (Conv2D)               (None, 256, 17, 17)   401408      activation_71[0][0]              
____________________________________________________________________________________________________
conv2d_73 (Conv2D)               (None, 128, 17, 17)   131072      average_pooling2d_7[0][0]        
____________________________________________________________________________________________________
batch_normalization_64 (BatchNor (None, 384, 17, 17)   1536        conv2d_64[0][0]                  
____________________________________________________________________________________________________
batch_normalization_67 (BatchNor (None, 256, 17, 17)   1024        conv2d_67[0][0]                  
____________________________________________________________________________________________________
batch_normalization_72 (BatchNor (None, 256, 17, 17)   1024        conv2d_72[0][0]                  
____________________________________________________________________________________________________
batch_normalization_73 (BatchNor (None, 128, 17, 17)   512         conv2d_73[0][0]                  
____________________________________________________________________________________________________
activation_64 (Activation)       (None, 384, 17, 17)   0           batch_normalization_64[0][0]     
____________________________________________________________________________________________________
activation_67 (Activation)       (None, 256, 17, 17)   0           batch_normalization_67[0][0]     
____________________________________________________________________________________________________
activation_72 (Activation)       (None, 256, 17, 17)   0           batch_normalization_72[0][0]     
____________________________________________________________________________________________________
activation_73 (Activation)       (None, 128, 17, 17)   0           batch_normalization_73[0][0]     
____________________________________________________________________________________________________
merge_11 (Merge)                 (None, 1024, 17, 17)  0           activation_64[0][0]              
                                                                   activation_67[0][0]              
                                                                   activation_72[0][0]              
                                                                   activation_73[0][0]              
____________________________________________________________________________________________________
conv2d_78 (Conv2D)               (None, 192, 17, 17)   196608      merge_11[0][0]                   
____________________________________________________________________________________________________
batch_normalization_78 (BatchNor (None, 192, 17, 17)   768         conv2d_78[0][0]                  
____________________________________________________________________________________________________
activation_78 (Activation)       (None, 192, 17, 17)   0           batch_normalization_78[0][0]     
____________________________________________________________________________________________________
conv2d_79 (Conv2D)               (None, 192, 17, 17)   258048      activation_78[0][0]              
____________________________________________________________________________________________________
batch_normalization_79 (BatchNor (None, 192, 17, 17)   768         conv2d_79[0][0]                  
____________________________________________________________________________________________________
activation_79 (Activation)       (None, 192, 17, 17)   0           batch_normalization_79[0][0]     
____________________________________________________________________________________________________
conv2d_75 (Conv2D)               (None, 192, 17, 17)   196608      merge_11[0][0]                   
____________________________________________________________________________________________________
conv2d_80 (Conv2D)               (None, 224, 17, 17)   301056      activation_79[0][0]              
____________________________________________________________________________________________________
batch_normalization_75 (BatchNor (None, 192, 17, 17)   768         conv2d_75[0][0]                  
____________________________________________________________________________________________________
batch_normalization_80 (BatchNor (None, 224, 17, 17)   896         conv2d_80[0][0]                  
____________________________________________________________________________________________________
activation_75 (Activation)       (None, 192, 17, 17)   0           batch_normalization_75[0][0]     
____________________________________________________________________________________________________
activation_80 (Activation)       (None, 224, 17, 17)   0           batch_normalization_80[0][0]     
____________________________________________________________________________________________________
conv2d_76 (Conv2D)               (None, 224, 17, 17)   301056      activation_75[0][0]              
____________________________________________________________________________________________________
conv2d_81 (Conv2D)               (None, 224, 17, 17)   351232      activation_80[0][0]              
____________________________________________________________________________________________________
batch_normalization_76 (BatchNor (None, 224, 17, 17)   896         conv2d_76[0][0]                  
____________________________________________________________________________________________________
batch_normalization_81 (BatchNor (None, 224, 17, 17)   896         conv2d_81[0][0]                  
____________________________________________________________________________________________________
activation_76 (Activation)       (None, 224, 17, 17)   0           batch_normalization_76[0][0]     
____________________________________________________________________________________________________
activation_81 (Activation)       (None, 224, 17, 17)   0           batch_normalization_81[0][0]     
____________________________________________________________________________________________________
average_pooling2d_8 (AveragePool (None, 1024, 17, 17)  0           merge_11[0][0]                   
____________________________________________________________________________________________________
conv2d_74 (Conv2D)               (None, 384, 17, 17)   393216      merge_11[0][0]                   
____________________________________________________________________________________________________
conv2d_77 (Conv2D)               (None, 256, 17, 17)   401408      activation_76[0][0]              
____________________________________________________________________________________________________
conv2d_82 (Conv2D)               (None, 256, 17, 17)   401408      activation_81[0][0]              
____________________________________________________________________________________________________
conv2d_83 (Conv2D)               (None, 128, 17, 17)   131072      average_pooling2d_8[0][0]        
____________________________________________________________________________________________________
batch_normalization_74 (BatchNor (None, 384, 17, 17)   1536        conv2d_74[0][0]                  
____________________________________________________________________________________________________
batch_normalization_77 (BatchNor (None, 256, 17, 17)   1024        conv2d_77[0][0]                  
____________________________________________________________________________________________________
batch_normalization_82 (BatchNor (None, 256, 17, 17)   1024        conv2d_82[0][0]                  
____________________________________________________________________________________________________
batch_normalization_83 (BatchNor (None, 128, 17, 17)   512         conv2d_83[0][0]                  
____________________________________________________________________________________________________
activation_74 (Activation)       (None, 384, 17, 17)   0           batch_normalization_74[0][0]     
____________________________________________________________________________________________________
activation_77 (Activation)       (None, 256, 17, 17)   0           batch_normalization_77[0][0]     
____________________________________________________________________________________________________
activation_82 (Activation)       (None, 256, 17, 17)   0           batch_normalization_82[0][0]     
____________________________________________________________________________________________________
activation_83 (Activation)       (None, 128, 17, 17)   0           batch_normalization_83[0][0]     
____________________________________________________________________________________________________
merge_12 (Merge)                 (None, 1024, 17, 17)  0           activation_74[0][0]              
                                                                   activation_77[0][0]              
                                                                   activation_82[0][0]              
                                                                   activation_83[0][0]              
____________________________________________________________________________________________________
conv2d_88 (Conv2D)               (None, 192, 17, 17)   196608      merge_12[0][0]                   
____________________________________________________________________________________________________
batch_normalization_88 (BatchNor (None, 192, 17, 17)   768         conv2d_88[0][0]                  
____________________________________________________________________________________________________
activation_88 (Activation)       (None, 192, 17, 17)   0           batch_normalization_88[0][0]     
____________________________________________________________________________________________________
conv2d_89 (Conv2D)               (None, 192, 17, 17)   258048      activation_88[0][0]              
____________________________________________________________________________________________________
batch_normalization_89 (BatchNor (None, 192, 17, 17)   768         conv2d_89[0][0]                  
____________________________________________________________________________________________________
activation_89 (Activation)       (None, 192, 17, 17)   0           batch_normalization_89[0][0]     
____________________________________________________________________________________________________
conv2d_85 (Conv2D)               (None, 192, 17, 17)   196608      merge_12[0][0]                   
____________________________________________________________________________________________________
conv2d_90 (Conv2D)               (None, 224, 17, 17)   301056      activation_89[0][0]              
____________________________________________________________________________________________________
batch_normalization_85 (BatchNor (None, 192, 17, 17)   768         conv2d_85[0][0]                  
____________________________________________________________________________________________________
batch_normalization_90 (BatchNor (None, 224, 17, 17)   896         conv2d_90[0][0]                  
____________________________________________________________________________________________________
activation_85 (Activation)       (None, 192, 17, 17)   0           batch_normalization_85[0][0]     
____________________________________________________________________________________________________
activation_90 (Activation)       (None, 224, 17, 17)   0           batch_normalization_90[0][0]     
____________________________________________________________________________________________________
conv2d_86 (Conv2D)               (None, 224, 17, 17)   301056      activation_85[0][0]              
____________________________________________________________________________________________________
conv2d_91 (Conv2D)               (None, 224, 17, 17)   351232      activation_90[0][0]              
____________________________________________________________________________________________________
batch_normalization_86 (BatchNor (None, 224, 17, 17)   896         conv2d_86[0][0]                  
____________________________________________________________________________________________________
batch_normalization_91 (BatchNor (None, 224, 17, 17)   896         conv2d_91[0][0]                  
____________________________________________________________________________________________________
activation_86 (Activation)       (None, 224, 17, 17)   0           batch_normalization_86[0][0]     
____________________________________________________________________________________________________
activation_91 (Activation)       (None, 224, 17, 17)   0           batch_normalization_91[0][0]     
____________________________________________________________________________________________________
average_pooling2d_9 (AveragePool (None, 1024, 17, 17)  0           merge_12[0][0]                   
____________________________________________________________________________________________________
conv2d_84 (Conv2D)               (None, 384, 17, 17)   393216      merge_12[0][0]                   
____________________________________________________________________________________________________
conv2d_87 (Conv2D)               (None, 256, 17, 17)   401408      activation_86[0][0]              
____________________________________________________________________________________________________
conv2d_92 (Conv2D)               (None, 256, 17, 17)   401408      activation_91[0][0]              
____________________________________________________________________________________________________
conv2d_93 (Conv2D)               (None, 128, 17, 17)   131072      average_pooling2d_9[0][0]        
____________________________________________________________________________________________________
batch_normalization_84 (BatchNor (None, 384, 17, 17)   1536        conv2d_84[0][0]                  
____________________________________________________________________________________________________
batch_normalization_87 (BatchNor (None, 256, 17, 17)   1024        conv2d_87[0][0]                  
____________________________________________________________________________________________________
batch_normalization_92 (BatchNor (None, 256, 17, 17)   1024        conv2d_92[0][0]                  
____________________________________________________________________________________________________
batch_normalization_93 (BatchNor (None, 128, 17, 17)   512         conv2d_93[0][0]                  
____________________________________________________________________________________________________
activation_84 (Activation)       (None, 384, 17, 17)   0           batch_normalization_84[0][0]     
____________________________________________________________________________________________________
activation_87 (Activation)       (None, 256, 17, 17)   0           batch_normalization_87[0][0]     
____________________________________________________________________________________________________
activation_92 (Activation)       (None, 256, 17, 17)   0           batch_normalization_92[0][0]     
____________________________________________________________________________________________________
activation_93 (Activation)       (None, 128, 17, 17)   0           batch_normalization_93[0][0]     
____________________________________________________________________________________________________
merge_13 (Merge)                 (None, 1024, 17, 17)  0           activation_84[0][0]              
                                                                   activation_87[0][0]              
                                                                   activation_92[0][0]              
                                                                   activation_93[0][0]              
____________________________________________________________________________________________________
conv2d_96 (Conv2D)               (None, 256, 17, 17)   262144      merge_13[0][0]                   
____________________________________________________________________________________________________
batch_normalization_96 (BatchNor (None, 256, 17, 17)   1024        conv2d_96[0][0]                  
____________________________________________________________________________________________________
activation_96 (Activation)       (None, 256, 17, 17)   0           batch_normalization_96[0][0]     
____________________________________________________________________________________________________
conv2d_97 (Conv2D)               (None, 256, 17, 17)   458752      activation_96[0][0]              
____________________________________________________________________________________________________
batch_normalization_97 (BatchNor (None, 256, 17, 17)   1024        conv2d_97[0][0]                  
____________________________________________________________________________________________________
activation_97 (Activation)       (None, 256, 17, 17)   0           batch_normalization_97[0][0]     
____________________________________________________________________________________________________
conv2d_94 (Conv2D)               (None, 192, 17, 17)   196608      merge_13[0][0]                   
____________________________________________________________________________________________________
conv2d_98 (Conv2D)               (None, 320, 17, 17)   573440      activation_97[0][0]              
____________________________________________________________________________________________________
batch_normalization_94 (BatchNor (None, 192, 17, 17)   768         conv2d_94[0][0]                  
____________________________________________________________________________________________________
batch_normalization_98 (BatchNor (None, 320, 17, 17)   1280        conv2d_98[0][0]                  
____________________________________________________________________________________________________
activation_94 (Activation)       (None, 192, 17, 17)   0           batch_normalization_94[0][0]     
____________________________________________________________________________________________________
activation_98 (Activation)       (None, 320, 17, 17)   0           batch_normalization_98[0][0]     
____________________________________________________________________________________________________
conv2d_95 (Conv2D)               (None, 192, 8, 8)     331776      activation_94[0][0]              
____________________________________________________________________________________________________
conv2d_99 (Conv2D)               (None, 320, 8, 8)     921600      activation_98[0][0]              
____________________________________________________________________________________________________
batch_normalization_95 (BatchNor (None, 192, 8, 8)     768         conv2d_95[0][0]                  
____________________________________________________________________________________________________
batch_normalization_99 (BatchNor (None, 320, 8, 8)     1280        conv2d_99[0][0]                  
____________________________________________________________________________________________________
activation_95 (Activation)       (None, 192, 8, 8)     0           batch_normalization_95[0][0]     
____________________________________________________________________________________________________
activation_99 (Activation)       (None, 320, 8, 8)     0           batch_normalization_99[0][0]     
____________________________________________________________________________________________________
max_pooling2d_4 (MaxPooling2D)   (None, 1024, 8, 8)    0           merge_13[0][0]                   
____________________________________________________________________________________________________
merge_14 (Merge)                 (None, 1536, 8, 8)    0           activation_95[0][0]              
                                                                   activation_99[0][0]              
                                                                   max_pooling2d_4[0][0]            
____________________________________________________________________________________________________
conv2d_104 (Conv2D)              (None, 384, 8, 8)     589824      merge_14[0][0]                   
____________________________________________________________________________________________________
batch_normalization_104 (BatchNo (None, 384, 8, 8)     1536        conv2d_104[0][0]                 
____________________________________________________________________________________________________
activation_104 (Activation)      (None, 384, 8, 8)     0           batch_normalization_104[0][0]    
____________________________________________________________________________________________________
conv2d_105 (Conv2D)              (None, 448, 8, 8)     516096      activation_104[0][0]             
____________________________________________________________________________________________________
batch_normalization_105 (BatchNo (None, 448, 8, 8)     1792        conv2d_105[0][0]                 
____________________________________________________________________________________________________
activation_105 (Activation)      (None, 448, 8, 8)     0           batch_normalization_105[0][0]    
____________________________________________________________________________________________________
conv2d_101 (Conv2D)              (None, 384, 8, 8)     589824      merge_14[0][0]                   
____________________________________________________________________________________________________
conv2d_106 (Conv2D)              (None, 512, 8, 8)     688128      activation_105[0][0]             
____________________________________________________________________________________________________
batch_normalization_101 (BatchNo (None, 384, 8, 8)     1536        conv2d_101[0][0]                 
____________________________________________________________________________________________________
batch_normalization_106 (BatchNo (None, 512, 8, 8)     2048        conv2d_106[0][0]                 
____________________________________________________________________________________________________
activation_101 (Activation)      (None, 384, 8, 8)     0           batch_normalization_101[0][0]    
____________________________________________________________________________________________________
activation_106 (Activation)      (None, 512, 8, 8)     0           batch_normalization_106[0][0]    
____________________________________________________________________________________________________
conv2d_102 (Conv2D)              (None, 256, 8, 8)     294912      activation_101[0][0]             
____________________________________________________________________________________________________
conv2d_103 (Conv2D)              (None, 256, 8, 8)     294912      activation_101[0][0]             
____________________________________________________________________________________________________
conv2d_107 (Conv2D)              (None, 256, 8, 8)     393216      activation_106[0][0]             
____________________________________________________________________________________________________
conv2d_108 (Conv2D)              (None, 256, 8, 8)     393216      activation_106[0][0]             
____________________________________________________________________________________________________
average_pooling2d_10 (AveragePoo (None, 1536, 8, 8)    0           merge_14[0][0]                   
____________________________________________________________________________________________________
conv2d_100 (Conv2D)              (None, 256, 8, 8)     393216      merge_14[0][0]                   
____________________________________________________________________________________________________
batch_normalization_102 (BatchNo (None, 256, 8, 8)     1024        conv2d_102[0][0]                 
____________________________________________________________________________________________________
batch_normalization_103 (BatchNo (None, 256, 8, 8)     1024        conv2d_103[0][0]                 
____________________________________________________________________________________________________
batch_normalization_107 (BatchNo (None, 256, 8, 8)     1024        conv2d_107[0][0]                 
____________________________________________________________________________________________________
batch_normalization_108 (BatchNo (None, 256, 8, 8)     1024        conv2d_108[0][0]                 
____________________________________________________________________________________________________
conv2d_109 (Conv2D)              (None, 256, 8, 8)     393216      average_pooling2d_10[0][0]       
____________________________________________________________________________________________________
batch_normalization_100 (BatchNo (None, 256, 8, 8)     1024        conv2d_100[0][0]                 
____________________________________________________________________________________________________
activation_102 (Activation)      (None, 256, 8, 8)     0           batch_normalization_102[0][0]    
____________________________________________________________________________________________________
activation_103 (Activation)      (None, 256, 8, 8)     0           batch_normalization_103[0][0]    
____________________________________________________________________________________________________
activation_107 (Activation)      (None, 256, 8, 8)     0           batch_normalization_107[0][0]    
____________________________________________________________________________________________________
activation_108 (Activation)      (None, 256, 8, 8)     0           batch_normalization_108[0][0]    
____________________________________________________________________________________________________
batch_normalization_109 (BatchNo (None, 256, 8, 8)     1024        conv2d_109[0][0]                 
____________________________________________________________________________________________________
activation_100 (Activation)      (None, 256, 8, 8)     0           batch_normalization_100[0][0]    
____________________________________________________________________________________________________
merge_15 (Merge)                 (None, 512, 8, 8)     0           activation_102[0][0]             
                                                                   activation_103[0][0]             
____________________________________________________________________________________________________
merge_16 (Merge)                 (None, 512, 8, 8)     0           activation_107[0][0]             
                                                                   activation_108[0][0]             
____________________________________________________________________________________________________
activation_109 (Activation)      (None, 256, 8, 8)     0           batch_normalization_109[0][0]    
____________________________________________________________________________________________________
merge_17 (Merge)                 (None, 1536, 8, 8)    0           activation_100[0][0]             
                                                                   merge_15[0][0]                   
                                                                   merge_16[0][0]                   
                                                                   activation_109[0][0]             
____________________________________________________________________________________________________
conv2d_114 (Conv2D)              (None, 384, 8, 8)     589824      merge_17[0][0]                   
____________________________________________________________________________________________________
batch_normalization_114 (BatchNo (None, 384, 8, 8)     1536        conv2d_114[0][0]                 
____________________________________________________________________________________________________
activation_114 (Activation)      (None, 384, 8, 8)     0           batch_normalization_114[0][0]    
____________________________________________________________________________________________________
conv2d_115 (Conv2D)              (None, 448, 8, 8)     516096      activation_114[0][0]             
____________________________________________________________________________________________________
batch_normalization_115 (BatchNo (None, 448, 8, 8)     1792        conv2d_115[0][0]                 
____________________________________________________________________________________________________
activation_115 (Activation)      (None, 448, 8, 8)     0           batch_normalization_115[0][0]    
____________________________________________________________________________________________________
conv2d_111 (Conv2D)              (None, 384, 8, 8)     589824      merge_17[0][0]                   
____________________________________________________________________________________________________
conv2d_116 (Conv2D)              (None, 512, 8, 8)     688128      activation_115[0][0]             
____________________________________________________________________________________________________
batch_normalization_111 (BatchNo (None, 384, 8, 8)     1536        conv2d_111[0][0]                 
____________________________________________________________________________________________________
batch_normalization_116 (BatchNo (None, 512, 8, 8)     2048        conv2d_116[0][0]                 
____________________________________________________________________________________________________
activation_111 (Activation)      (None, 384, 8, 8)     0           batch_normalization_111[0][0]    
____________________________________________________________________________________________________
activation_116 (Activation)      (None, 512, 8, 8)     0           batch_normalization_116[0][0]    
____________________________________________________________________________________________________
conv2d_112 (Conv2D)              (None, 256, 8, 8)     294912      activation_111[0][0]             
____________________________________________________________________________________________________
conv2d_113 (Conv2D)              (None, 256, 8, 8)     294912      activation_111[0][0]             
____________________________________________________________________________________________________
conv2d_117 (Conv2D)              (None, 256, 8, 8)     393216      activation_116[0][0]             
____________________________________________________________________________________________________
conv2d_118 (Conv2D)              (None, 256, 8, 8)     393216      activation_116[0][0]             
____________________________________________________________________________________________________
average_pooling2d_11 (AveragePoo (None, 1536, 8, 8)    0           merge_17[0][0]                   
____________________________________________________________________________________________________
conv2d_110 (Conv2D)              (None, 256, 8, 8)     393216      merge_17[0][0]                   
____________________________________________________________________________________________________
batch_normalization_112 (BatchNo (None, 256, 8, 8)     1024        conv2d_112[0][0]                 
____________________________________________________________________________________________________
batch_normalization_113 (BatchNo (None, 256, 8, 8)     1024        conv2d_113[0][0]                 
____________________________________________________________________________________________________
batch_normalization_117 (BatchNo (None, 256, 8, 8)     1024        conv2d_117[0][0]                 
____________________________________________________________________________________________________
batch_normalization_118 (BatchNo (None, 256, 8, 8)     1024        conv2d_118[0][0]                 
____________________________________________________________________________________________________
conv2d_119 (Conv2D)              (None, 256, 8, 8)     393216      average_pooling2d_11[0][0]       
____________________________________________________________________________________________________
batch_normalization_110 (BatchNo (None, 256, 8, 8)     1024        conv2d_110[0][0]                 
____________________________________________________________________________________________________
activation_112 (Activation)      (None, 256, 8, 8)     0           batch_normalization_112[0][0]    
____________________________________________________________________________________________________
activation_113 (Activation)      (None, 256, 8, 8)     0           batch_normalization_113[0][0]    
____________________________________________________________________________________________________
activation_117 (Activation)      (None, 256, 8, 8)     0           batch_normalization_117[0][0]    
____________________________________________________________________________________________________
activation_118 (Activation)      (None, 256, 8, 8)     0           batch_normalization_118[0][0]    
____________________________________________________________________________________________________
batch_normalization_119 (BatchNo (None, 256, 8, 8)     1024        conv2d_119[0][0]                 
____________________________________________________________________________________________________
activation_110 (Activation)      (None, 256, 8, 8)     0           batch_normalization_110[0][0]    
____________________________________________________________________________________________________
merge_18 (Merge)                 (None, 512, 8, 8)     0           activation_112[0][0]             
                                                                   activation_113[0][0]             
____________________________________________________________________________________________________
merge_19 (Merge)                 (None, 512, 8, 8)     0           activation_117[0][0]             
                                                                   activation_118[0][0]             
____________________________________________________________________________________________________
activation_119 (Activation)      (None, 256, 8, 8)     0           batch_normalization_119[0][0]    
____________________________________________________________________________________________________
merge_20 (Merge)                 (None, 1536, 8, 8)    0           activation_110[0][0]             
                                                                   merge_18[0][0]                   
                                                                   merge_19[0][0]                   
                                                                   activation_119[0][0]             
____________________________________________________________________________________________________
conv2d_124 (Conv2D)              (None, 384, 8, 8)     589824      merge_20[0][0]                   
____________________________________________________________________________________________________
batch_normalization_124 (BatchNo (None, 384, 8, 8)     1536        conv2d_124[0][0]                 
____________________________________________________________________________________________________
activation_124 (Activation)      (None, 384, 8, 8)     0           batch_normalization_124[0][0]    
____________________________________________________________________________________________________
conv2d_125 (Conv2D)              (None, 448, 8, 8)     516096      activation_124[0][0]             
____________________________________________________________________________________________________
batch_normalization_125 (BatchNo (None, 448, 8, 8)     1792        conv2d_125[0][0]                 
____________________________________________________________________________________________________
activation_125 (Activation)      (None, 448, 8, 8)     0           batch_normalization_125[0][0]    
____________________________________________________________________________________________________
conv2d_121 (Conv2D)              (None, 384, 8, 8)     589824      merge_20[0][0]                   
____________________________________________________________________________________________________
conv2d_126 (Conv2D)              (None, 512, 8, 8)     688128      activation_125[0][0]             
____________________________________________________________________________________________________
batch_normalization_121 (BatchNo (None, 384, 8, 8)     1536        conv2d_121[0][0]                 
____________________________________________________________________________________________________
batch_normalization_126 (BatchNo (None, 512, 8, 8)     2048        conv2d_126[0][0]                 
____________________________________________________________________________________________________
activation_121 (Activation)      (None, 384, 8, 8)     0           batch_normalization_121[0][0]    
____________________________________________________________________________________________________
activation_126 (Activation)      (None, 512, 8, 8)     0           batch_normalization_126[0][0]    
____________________________________________________________________________________________________
conv2d_122 (Conv2D)              (None, 256, 8, 8)     294912      activation_121[0][0]             
____________________________________________________________________________________________________
conv2d_123 (Conv2D)              (None, 256, 8, 8)     294912      activation_121[0][0]             
____________________________________________________________________________________________________
conv2d_127 (Conv2D)              (None, 256, 8, 8)     393216      activation_126[0][0]             
____________________________________________________________________________________________________
conv2d_128 (Conv2D)              (None, 256, 8, 8)     393216      activation_126[0][0]             
____________________________________________________________________________________________________
average_pooling2d_12 (AveragePoo (None, 1536, 8, 8)    0           merge_20[0][0]                   
____________________________________________________________________________________________________
conv2d_120 (Conv2D)              (None, 256, 8, 8)     393216      merge_20[0][0]                   
____________________________________________________________________________________________________
batch_normalization_122 (BatchNo (None, 256, 8, 8)     1024        conv2d_122[0][0]                 
____________________________________________________________________________________________________
batch_normalization_123 (BatchNo (None, 256, 8, 8)     1024        conv2d_123[0][0]                 
____________________________________________________________________________________________________
batch_normalization_127 (BatchNo (None, 256, 8, 8)     1024        conv2d_127[0][0]                 
____________________________________________________________________________________________________
batch_normalization_128 (BatchNo (None, 256, 8, 8)     1024        conv2d_128[0][0]                 
____________________________________________________________________________________________________
conv2d_129 (Conv2D)              (None, 256, 8, 8)     393216      average_pooling2d_12[0][0]       
____________________________________________________________________________________________________
batch_normalization_120 (BatchNo (None, 256, 8, 8)     1024        conv2d_120[0][0]                 
____________________________________________________________________________________________________
activation_122 (Activation)      (None, 256, 8, 8)     0           batch_normalization_122[0][0]    
____________________________________________________________________________________________________
activation_123 (Activation)      (None, 256, 8, 8)     0           batch_normalization_123[0][0]    
____________________________________________________________________________________________________
activation_127 (Activation)      (None, 256, 8, 8)     0           batch_normalization_127[0][0]    
____________________________________________________________________________________________________
activation_128 (Activation)      (None, 256, 8, 8)     0           batch_normalization_128[0][0]    
____________________________________________________________________________________________________
batch_normalization_129 (BatchNo (None, 256, 8, 8)     1024        conv2d_129[0][0]                 
____________________________________________________________________________________________________
activation_120 (Activation)      (None, 256, 8, 8)     0           batch_normalization_120[0][0]    
____________________________________________________________________________________________________
merge_21 (Merge)                 (None, 512, 8, 8)     0           activation_122[0][0]             
                                                                   activation_123[0][0]             
____________________________________________________________________________________________________
merge_22 (Merge)                 (None, 512, 8, 8)     0           activation_127[0][0]             
                                                                   activation_128[0][0]             
____________________________________________________________________________________________________
activation_129 (Activation)      (None, 256, 8, 8)     0           batch_normalization_129[0][0]    
____________________________________________________________________________________________________
merge_23 (Merge)                 (None, 1536, 8, 8)    0           activation_120[0][0]             
                                                                   merge_21[0][0]                   
                                                                   merge_22[0][0]                   
                                                                   activation_129[0][0]             
____________________________________________________________________________________________________
average_pooling2d_13 (AveragePoo (None, 1536, 1, 1)    0           merge_23[0][0]                   
____________________________________________________________________________________________________
dropout_1 (Dropout)              (None, 1536, 1, 1)    0           average_pooling2d_13[0][0]       
____________________________________________________________________________________________________
flatten_1 (Flatten)              (None, 1536)          0           dropout_1[0][0]                  
____________________________________________________________________________________________________
dense_1 (Dense)                  (None, 5)             7685        flatten_1[0][0]                  
====================================================================================================
Total params: 35,332,069
Trainable params: 35,277,989
Non-trainable params: 54,080
____________________________________________________________________________________________________

